unet/unet_segmentation3.pth (torch, 485074 bytes, 25 tensors)

weight f4 [16, 3, 3, 3]
000000 39 c3 b5 3d 0b 4b ef 3d 22 ce 2f be 94 00 47 3e
       0.088751264 0.11684235 -0.17168477 0.19433814
000010 7b 5b d9 bd 26 69 b2 bd f9 7c 11 be ac 45 08 be
       -0.10613152 -0.08711462 -0.1420783 -0.13307828
000020 bb 4e 23 be ba b6 70 bd 71 2f c7 bc ac 6c 95 bd
       -0.15948002 -0.05876801 -0.024314614 -0.07296118
000030 1d 9e 13 be 6d d1 2c 3e ec 18 88 3d 29 e8 05 3e
       -0.14415784 0.16876765 0.066453785 0.13076843
000040 a6 06 bf 3d 07 46 25 be c2 4c 31 3d a5 46 09 be
       0.0932744 -0.16139995 0.043286093 -0.13405855
000050 d2 97 ef 3d 1b a0 09 3e fb a0 3c bd 60 4a a8 bd
       0.11698879 0.13439982 -0.04605196 -0.08217311
000060 da cc 39 3e 66 8d 37 3e 0f 73 9b 39 6c 35 4e bd
       0.18144551 0.17925033 0.0002964963 -0.050343916
000070 9f 2e e0 3d ce 03 50 bd 14 d7 f6 3d 16 66 69 bc
       0.10946392 -0.05078488 0.12052742 -0.014245531
000080 c7 e5 df 3c 5e 81 5f 3c b1 c4 f7 3d 11 70 33 3d
       0.027331246 0.013641683 0.12098063 0.043808047
000090 14 7e 36 3d cb 2c c7 bd 40 ec 0a be 27 31 80 bd
       0.04455383 -0.097253405 -0.13566685 -0.06259375
0000a0 c3 54 3a be b4 d8 bc bc 32 8a fb 3d 11 aa 1b 3e
       -0.18196397 -0.02305255 0.12282218 0.15201594
0000b0 dd 2f 07 be 9b 1b 38 3e dd 4b c0 3d c0 04 ca bd
       -0.13201852 0.1797928 0.0938947 -0.09864187
0000c0 ae b7 18 bd cd 70 90 3d 9f fe 54 3e e4 5a b3 3d
       -0.037284546 0.07052765 0.20800255 0.087575704
0000d0 dc 73 a7 3d 80 99 ea bd 8c d6 64 bd 58 49 14 be
       0.08176395 -0.11455059 -0.05586867 -0.14481103
0000e0 f0 c7 05 be eb 94 48 3e 51 ac 17 be 6a 35 50 3d
       -0.13064551 0.19588058 -0.14811827 0.05083219
0000f0 5b 64 e3 3d 3f bb 42 be d1 9c 00 be 91 2f 20 3d
       0.11103126 -0.19016741 -0.1255982 0.039107863
000100 f1 28 46 bd 74 02 3e 3e fc af 9e bc 56 1f 77 bc
       -0.04837889 0.18555623 -0.019371025 -0.015083155
000110 14 19 51 3a 9f 5a 2c 3c ba 5f 14 be 21 02 0e 3e
       0.0007976454 0.010519653 -0.14489642 0.13868
000120 7f 66 f8 bd cf 1a 5e be 84 5e 05 3d bf a5 27 bd
       -0.121289246 -0.21689914 0.03256084 -0.040929552
000130 b1 8a f9 3d 3a f4 b0 3d 15 35 79 3d 80 5c 25 bc
       0.121846564 0.086403325 0.06084164 -0.0100928545
000140 92 bd 1b be c3 78 72 bc 68 a1 88 3d 9d b3 40 be
       -0.15209034 -0.0147993 0.06671411 -0.18818517
000150 ff 7f 2e be 80 41 e7 bc fe 6b 22 3e 55 ee ef 3b
       -0.17041014 -0.028229475 0.15861508 0.0073221126
000160 51 ba d7 ba 23 18 f5 3c 87 c7 47 bd ce f7 69 bd
       -0.0016458725 0.029918736 -0.04877427 -0.05712109
000170 f2 8d 8e bc 6a 19 3c 3e f7 af be bd fb 44 08 3e
       -0.01740167 0.1836907 -0.093109064 0.13307564
000180 35 60 50 bd 7d 92 00 bd fa ea 22 3e 40 94 c4 bd
       -0.050873 -0.031389702 0.15909949 -0.09598589
000190 c6 97 3c be 2b 6d c4 3d 55 03 38 3e 8d 58 c6 3d
       -0.18417272 0.09591135 0.17970021 0.096848585
0001a0 ff f0 b2 bc 41 b0 49 be b4 b4 3a bc 52 b2 16 3e
       -0.021843432 -0.19696142 -0.011395622 0.14716461
0001b0 2b 6a a5 3d e1 29 d2 3d 51 bd 1a 3e 7b dd 79 bd
       0.080768906 0.10261894 0.15111281 -0.061002236
0001c0 5d 58 42 bd 0b a5 25 be e6 47 4f 3d 55 c7 95 3c
       -0.04744755 -0.1617624 0.050605677 0.018283525
0001d0 3b 3f 4a 3e 9d 46 0c 3e dc ab b3 bd b3 29 a6 bc
       0.19750683 0.13698812 -0.08773014 -0.020283556
0001e0 4b 08 6c bd 66 cf f2 bd b6 ae fe bd 26 03 34 3e
       -0.057625096 -0.11855964 -0.12435667 0.17579326
0001f0 21 65 59 3e 54 37 cd bd 8e 3a 5a be cb 89 25 be
       0.21229984 -0.100203186 -0.213114 -0.16165845
000200 61 54 dc bb 83 22 f5 3d 47 47 f2 bd 1b 92 2f bd
       -0.006723926 0.11969473 -0.11830001 -0.042863946
000210 0a 43 e3 bd 4e a2 25 3e 05 75 35 be 55 26 42 bc
       -0.11096771 0.16175196 -0.1772042 -0.011849959
000220 4e 8c 14 be 0a ea 2b 3d 54 e8 0b 3e d5 ee 7f 3c
       -0.14506647 0.041971244 0.13662845 0.015620907
000230 2e ba fa 3d 19 23 1e be fb f3 4b be df 6c 22 3d
       0.12242542 -0.15443076 -0.1991729 0.03965461
000240 7c dd 22 3e f1 4a a7 3c a5 96 5a 3d 2a 88 e7 bd
       0.15904802 0.020421477 0.053366322 -0.11305268
000250 38 91 0f be a3 81 20 bd be d0 d7 3d 5b 3f f4 bc
       -0.1402024 -0.03918613 0.10537861 -0.029815366
000260 56 34 fb 3d b7 29 b3 3d 06 69 54 3e ca 85 e7 bd
       0.12265842 0.08748191 0.20743188 -0.11304815
000270 08 f4 8b 3d f4 f8 3b 3d c0 3e f0 bd d1 1a 47 3e
       0.06833655 0.045891717 -0.117307186 0.19443823
000280 3a 20 73 bd 1d 0a dc 3d 4f 56 0a 3d 10 88 aa bc
       -0.059356906 0.107441165 0.033773717 -0.020816833
000290 ec 34 02 be a3 7a 46 3e ec 15 16 be 67 22 1f 3e
       -0.127155 0.1938272 -0.146568 0.15540467
0002a0 50 f5 04 bd 91 dc 46 3e 94 e4 72 bd 70 90 34 be
       -0.03246051 0.19420077 -0.05930002 -0.17633224
0002b0 52 c6 84 3d f5 bc 14 3e 64 f2 d5 bd b4 4e 3d be
       0.06483139 0.14525206 -0.10446623 -0.18487054
0002c0 7c ae 17 be d8 7f 00 3d b8 a8 f3 bd 81 55 fd 3d
       -0.14812654 0.03137192 -0.11897415 0.12369824
0002d0 16 c0 7e bc 54 18 30 bd a7 c1 07 3c 94 22 20 be
       -0.015548727 -0.04299195 0.008285916 -0.1563819
0002e0 f7 be fc bd de 77 b5 bc fe 34 f2 bc 98 f2 e7 3d
       -0.12341111 -0.022151884 -0.029566284 0.11325568
0002f0 05 68 96 bd 6c ae ec bc a4 fa 3e be a8 71 43 3e
       -0.07344059 -0.028891765 -0.186503 0.19086325
000300 bc 76 d8 3c 7c 27 25 be 9a 5c 74 bd 3b 30 90 bc
       0.026423804 -0.16128343 -0.059658624 -0.017601123
000310 b0 2b 38 3e ff e1 21 3d 37 f8 45 3c 32 2b 02 bd
       0.17985415 0.039522167 0.012083105 -0.031779476
000320 81 28 10 3e 82 fe b0 bd 0d f2 e3 bd 11 f9 c3 3d
       0.14077951 -0.086422935 -0.11130152 0.0956899
000330 77 b1 ee 3d 64 ec fc bd d5 7b 9c 3c 53 52 f2 bc
       0.116549425 -0.123497754 0.019102016 -0.02958027
000340 c5 01 74 3d 99 2d c7 3d 94 c8 1f 3c 60 10 fd bd
       0.059572 0.09725494 0.009752411 -0.12356639
000350 c0 e1 ed 3c c1 75 2c be 24 5a 63 3d 7c 70 e2 3d
       0.02903831 -0.16841795 0.055505887 0.11056611
000360 b9 8a 14 be 53 8e 31 bd 00 4a 02 3e e9 54 3f 3e
       -0.14506043 -0.04334862 0.12723541 0.18684734
000370 bf 00 59 3d 6e d8 04 3e 0a 52 2b 3d 20 49 01 3e
       0.052979227 0.12973186 0.041826285 0.12625551
000380 e6 ce 3d bd 9a f9 ea bc ba 37 93 bd 13 f4 27 be
       -0.04633989 -0.028683472 -0.071883634 -0.164017
000390 84 3e 74 bd d4 f9 b0 bd ad 31 54 be e7 b7 21 be
       -0.059629932 -0.08641401 -0.20722075 -0.1579281
0003a0 7f 05 9a 3d fc b2 56 3d a6 73 e0 3d 1d 2d 0b 3d
       0.075205795 0.052416787 0.10959558 0.03397857
0003b0 b4 97 e0 bd a2 e7 91 3d 8a ea e6 3d 19 d4 a3 bc
       -0.10966435 0.071242586 0.112752035 -0.019998597
0003c0 37 b3 27 be b7 5c 41 be f3 58 3c be 86 81 42 3d
       -0.16376959 -0.18883024 -0.18393306 0.047486804
0003d0 40 b7 ef 3d eb d7 32 ba c1 78 1c be 80 7e f8 bd
       0.11704874 -0.00068223354 -0.15280439 -0.12133503
0003e0 94 57 97 bc ac 18 8d bc b1 97 d6 bd 42 da b6 3d
       -0.018474378 -0.017223679 -0.104781516 0.08928348
0003f0 de fb b9 bd 34 87 3e be 8c cf 84 3d 61 87 16 be
       -0.09081243 -0.18606263 0.06484899 -0.1470008

bias f4 [16]
000000 2e a8 8c bc dc 2e 81 3a 54 62 d5 3d bc dc 22 3e
       -0.017170038 0.0009855884 0.10419145 0.15904516
000010 52 16 8a 3d 3c 44 d0 bc 22 e9 c7 3d 37 ad de bd
       0.067425385 -0.025423162 0.097612634 -0.10872882
000020 ff f5 9c ba c8 5e 0e bd 5c a9 42 be 39 c3 c9 bd
       -0.0011975168 -0.03475836 -0.19009918 -0.09851689
000030 ae 55 2b 3d 50 24 84 3d a1 07 60 3d 32 7b f1 3c
       0.041829757 0.064522386 0.054694775 0.02947769

weight f4 [16, 16, 3, 3]
000000 da 28 14 bc fc bb f2 3c a0 83 7a bd 9b 4b bb bc
       -0.009042943 0.029630654 -0.061160684 -0.0228632
000010 df cb 93 bb 71 33 f4 3c e1 b6 95 bd 26 b8 bb bc
       -0.0045103873 0.029809685 -0.07310272 -0.022914957
000020 e2 44 2c 3d 19 e5 84 3d 68 aa 89 bd f5 de 7f bd
       0.04205788 0.064890094 -0.067219555 -0.062468488
000030 80 2e ac 3d ad 01 93 3d cd 56 68 3d 35 04 67 bb
       0.08407307 0.07178054 0.056723405 -0.003525031
000040 3c f6 a1 3d 06 fc a2 3d 90 49 6f bd 87 00 1a 3d
       0.079082936 0.07958226 -0.058419764 0.03759816
000050 d6 9f 10 bd 7c cf 03 bd 08 06 60 3d 87 00 40 bd
       -0.03530868 -0.032180294 0.05469325 -0.046875503
000060 42 78 83 3d 82 c8 9c bd a0 3e ed bb 8e 92 0d 3d
       0.06419422 -0.07655431 -0.0072401315 0.034563594
000070 9c 27 5b 3d 2d de e8 3c c0 1b a6 ba e4 49 90 bb
       0.05350457 0.028426254 -0.0012673065 -0.0044033397
000080 b5 82 50 3d ea a5 63 3c b1 96 2d 3c df da 93 3d
       0.050905902 0.013894537 0.01059501 0.07219481
000090 68 f9 c7 bd 18 71 a9 bd 3e d4 9c bd c4 df 91 bd
       -0.09764367 -0.08273524 -0.076576695 -0.07122758
0000a0 0b 98 bb bd 09 b5 2e bd 81 d0 e0 bd c1 b5 77 bd
       -0.09159859 -0.042653117 -0.10977269 -0.06047607
0000b0 6e e9 74 bd 1f 3c b9 3c 2d f0 d7 bc 5f e4 b4 3d
       -0.05979293 0.022611676 -0.026359642 0.08832621
0000c0 c3 70 33 3d cf d7 5d 3d 91 b7 96 3d 68 56 61 3c
       0.04380871 0.05416089 0.07359231 0.013753511
0000d0 a9 1c cf 38 a3 e1 65 bd 12 6b 3a 3d 61 c5 17 bd
       9.8758675e-05 -0.056123387 0.045512266 -0.03705347
0000e0 9d e1 20 3a fa 9b 5c 3c fc c5 0e 3d 73 0e 91 3c
       0.00061371346 0.013464922 0.03485678 0.017707085
0000f0 8e a9 96 bc ba 2c 1e bc 2b 5c 7d bd 28 fe 57 3d
       -0.018391397 -0.009654218 -0.061855476 0.052732617
000100 9b 96 15 bd 81 2b 71 bc 48 ce ab 3d 34 f2 07 3c
       -0.03652058 -0.014719845 0.083889544 0.008297492
000110 61 bd c9 bc cc 19 94 bb 6e 13 1a bd ee fd 03 bd
       -0.024626436 -0.004519677 -0.037616186 -0.032224588
000120 4e aa f8 3d f1 cf 5b 3d e0 db ee 3d 69 2b 0e 3d
       0.12141858 0.053665105 0.116630316 0.034709368
000130 cd 10 2e bd 83 06 ee bc 9f f5 c4 3d 5e 22 d8 3d
       -0.04249649 -0.02905584 0.09617161 0.1055343
000140 68 2d 32 3d 41 c3 a0 3d 98 17 17 3d 69 2b 94 bc
       0.043500334 0.07849742 0.036887735 -0.018087106
000150 f3 87 23 bd d4 74 6a bc bb 8d de 3c 9a ab 25 bd
       -0.039924573 -0.014310081 0.027167192 -0.040446855
000160 74 19 82 3d ca 2e 43 3d 8c 65 d1 bc c6 d6 3d 3d
       0.06352511 0.047652043 -0.025561117 0.046347402
000170 60 a3 1d bc 0b ea 62 bd 6b 4f 99 bd 5a 1f 7a 3d
       -0.009621471 -0.055398982 -0.07485851 0.061065055
000180 e8 9e 0a bd c0 1b 1c bd c6 c4 fa bc 1a db 2e bb
       -0.03384295 -0.038112402 -0.030611407 -0.0026680888
000190 ba 0e 83 bd 88 dd fe bc 36 4a 5d 3c cd c1 95 3c
       -0.06399293 -0.031111494 0.013506463 0.018280888
0001a0 02 43 8e 3d b3 d6 c2 3d 7d 66 01 3d 0a f9 16 3d
       0.069463745 0.09513607 0.03159188 0.036858596
0001b0 87 fe 8c 3c 7a c8 ca 3c b9 61 84 bd de e2 93 ba
       0.017211212 0.024753798 -0.064639516 -0.0011282822
0001c0 fb 55 60 bc 3e 22 c8 3c ae 9e 7e 3d e0 79 34 3d
       -0.013692374 0.02443039 0.062163047 0.04406154
0001d0 af 62 71 bd b3 b1 9c 3d 2f 92 38 3d c8 d8 ea bc
       -0.058932003 0.07651081 0.045061287 -0.028667822
0001e0 f2 df 9b bd 61 ce 41 3d 63 df 8b bd 33 77 16 3a
       -0.076110736 0.04731596 -0.06829717 0.0005739808
0001f0 aa 18 41 3b 8e 83 6d 3c f8 e0 a3 3c 8a 87 2d 3d
       0.0029464164 0.014496697 0.020004734 0.04236559
000200 13 36 02 bd 3d 1a f0 bc 7b 8f 97 3b 66 65 09 3d
       -0.03178985 -0.029309386 0.0046252585 0.033543967
000210 89 47 ec 3b 2a 7a e3 3a 4f e2 6d 3c d8 17 ec 3b
       0.007210676 0.0017355133 0.014519288 0.007204991
000220 49 2c 29 3d 5c 30 86 3d ec b4 5b 3d 2e 93 a4 b9
       0.041302 0.065521926 0.053639337 -0.00031390175
000230 43 9c e0 3d 4c 13 ce 3d e0 1b cd 3d ae ec b7 bc
       0.109673046 0.10062274 0.10015082 -0.022451725
000240 8f 4d e8 3b fd d5 ab 3b e4 86 74 bc ae 93 43 bd
       0.007089324 0.0052440153 -0.014924739 -0.04774826
000250 f0 bf 8a bd 9e d8 fc bd 70 f1 90 3b e5 3a 24 bb
       -0.067748904 -0.12346004 0.004423313 -0.0025059518
000260 1f cd fd bc 23 e7 23 3d 77 26 e9 bd a2 9b 2c bd
       -0.030981598 0.04001535 -0.1138429 -0.04214061
000270 6d 4b 51 bc 61 74 a5 bd 2d 7f c2 3c 05 f6 79 bd
       -0.012774331 -0.08078838 0.023742283 -0.061025638
000280 73 97 8f 39 e1 5d 29 3d c2 2b 9c 3d d3 ca a0 bd
       0.00027387924 0.041349296 0.07625534 -0.07851186
000290 7a 04 1d 3d da 1e 6c 3d 65 8f a8 3d 95 58 62 3d
       0.038334347 0.05764661 0.08230475 0.05526026
0002a0 e1 19 b7 3d db ad 6f bd a8 87 b3 bd 12 77 d7 ba
       0.08940483 -0.05851541 -0.08766109 -0.0016438684
0002b0 0e 00 a8 3b bc 41 d8 bc df ef 70 bd fc 29 9f bd
       0.0051269596 -0.026398532 -0.05882251 -0.0777168
0002c0 29 16 f9 3c ee f1 28 3c 14 07 39 3d 11 f5 07 bc
       0.030406075 0.010311587 0.045172766 -0.0082981745
0002d0 ed 33 87 bc 9d 6c 9b 3c 28 c3 a3 3d 5c 74 e7 3d
       -0.016504252 0.01897269 0.079962075 0.11301491
0002e0 6c 4a 4a 3d 0c d4 7d bc 0c 96 ce 3d 0b 19 a4 bc
       0.04938738 -0.01549245 0.10087213 -0.020031473
0002f0 06 34 da bb eb a9 85 bd ba 77 aa bd 13 e2 97 bd
       -0.0066590337 -0.0652655 -0.08323617 -0.07416167
000300 87 70 cd 3c b7 e7 e9 bc 3e 07 10 bb ab d2 ec bc
       0.025078071 -0.028552873 -0.0021976973 -0.028909048
000310 71 ab 4d bd 78 86 c0 bd d2 57 61 3d ed 7b 82 3c
       -0.050212327 -0.09400648 0.055015393 0.015928233
000320 25 35 92 3d fc a3 5d bc 08 6a af 3d fb 2c 91 bc
       0.07139043 -0.013527866 0.08565146 -0.017721644
000330 6a 48 7f 3b fb 10 72 bd 4b 4f 54 3d be c6 48 3b
       0.0038953074 -0.059098225 0.051833432 0.0030636038
000340 15 57 88 3d 45 d8 2b 3d 85 82 cc 3c 89 7a 6c bd
       0.066572346 0.041954298 0.02496458 -0.057734046
000350 37 08 4e bd 0a 05 92 3d 85 56 d0 3c 34 7f c1 3c
       -0.050300803 0.071298674 0.02543188 0.023620225
000360 3a 6c 11 bd 91 c7 d5 bd 01 08 b2 bd 2e c8 42 bd
       -0.035503604 -0.10438455 -0.08692933 -0.047554187
000370 62 e0 23 bd b0 db e1 3b f1 01 be bd 17 73 04 3d
       -0.04000891 0.006892644 -0.09277714 0.03233632
000380 58 ba 1e bd af ca 23 3d 26 cc 82 bd 37 0d 3b bd
       -0.03875193 0.039988216 -0.063865945 -0.0456669
000390 38 90 97 3d 3f fd f2 3a 30 4e fb 3c 30 fd 33 3d
       0.074005544 0.0018538608 0.030676931 0.04394263
0003a0 9c ca ff 3a a5 dd 87 3b b3 2a 7f bd e0 2c 34 3c
       0.0019515338 0.004146295 -0.06229658 0.010997027
0003b0 53 8c 18 bd 06 f1 19 3d 98 1e 36 bd c0 cc aa 3a
       -0.0372432 0.037583373 -0.04446277 0.0013030991
0003c0 c0 83 c6 bb a1 99 a4 3d 0f c0 a7 3d 59 b2 dd bd
       -0.0060581863 0.08037115 0.08190929 -0.10825033
0003d0 c6 92 28 b8 99 38 a1 bc 8e 8f a2 bd db 55 fb 3c
       -4.0191015e-05 -0.019680308 -0.07937537 0.030680588
0003e0 b1 0f 19 bd 4b a3 c3 bd bd b2 5d 3c 81 db 1e 3d
       -0.03736848 -0.0955263 0.013531384 0.038783554
0003f0 43 b4 6f bd 76 13 05 bd 7a 22 4d bc 2f e9 29 bd
       -0.05852152 -0.032489263 -0.012520427 -0.041482147

bias f4 [16]
000000 a2 2a 83 bd 96 e9 1e 3c 8a b1 d8 bc 93 f4 be 3d
       -0.06404616 0.009699246 -0.026451845 0.093239926
000010 77 ff 04 3c 5f 67 c8 bd bf 06 c6 bc b4 40 a9 bd
       0.008117548 -0.097853415 -0.024173139 -0.08264294
000020 98 74 9c bd 3f 43 43 3c ce 1c bf bc 93 43 34 3c
       -0.07639426 0.011917888 -0.023329165 0.011002439
000030 70 88 b4 3c 18 be 56 bd 92 85 b8 3c 97 b3 4f bd
       0.022037715 -0.05242738 0.022524629 -0.05070838

weight f4 [32, 16, 3, 3]
000000 f9 28 8a 3d ea 53 48 3d 78 ae 19 3c 70 cd 7b bd
       0.06746096 0.04890815 0.0093799755 -0.061475217
000010 67 9d 90 3d e6 97 4e bd bc 92 92 bc 36 cb 06 bd
       0.07061272 -0.05043783 -0.017892234 -0.03290864
000020 6b 6d 54 bd 7e 82 20 3d 48 8a 33 bd 42 8b 37 3d
       -0.05186216 0.039186947 -0.043833047 0.04481054
000030 36 f6 bd bc 61 47 81 3d a0 4c 31 bd 4a ed 8c bd
       -0.023188692 0.063124426 -0.043285966 -0.06881197
000040 00 2a 85 3c 00 b1 b2 bb c0 ad 97 3c c6 91 3c bd
       0.016255379 -0.005453229 0.018515468 -0.046037458
000050 96 d7 79 3d 00 00 b2 b7 14 6c 93 bc 40 44 af bb
       0.060996614 -2.1219254e-05 -0.017995872 -0.005348712
000060 68 50 07 3c 41 c3 82 3d 38 aa 5b bc d8 34 78 bd
       0.008258916 0.06384898 -0.0134072825 -0.06059727
000070 43 6d 1a bd bb d7 7b bd 5e 34 3c bd 10 4c 9a 3b
       -0.037701856 -0.061485033 -0.04594838 0.0047087744
000080 76 09 2c bd 52 f4 4b 3d 7d f2 9b 3d 20 7a 28 bc
       -0.04200121 0.04979355 0.0761461 -0.010283023
000090 e6 fc 74 bd 40 fd be 3b 53 d3 50 bd bb 32 54 bd
       -0.059811495 0.0058285296 -0.050982784 -0.051806193
0000a0 08 33 93 bd 16 06 20 bd 60 49 58 3b af ac 9c 3d
       -0.07187468 -0.039068304 0.003300272 0.07650124
0000b0 9e db 59 3d cc 00 c2 3c 52 03 58 3d 9b 6c 19 bd
       0.05318796 0.02368202 0.05273754 -0.03745709
0000c0 62 38 62 3d d7 5f 80 bd c0 32 73 bc 8c 49 81 bc
       0.055229552 -0.0626828 -0.014843643 -0.01578214
0000d0 90 ce 04 3d d0 44 d0 3c c7 76 aa 3d 6f 3a 8e bd
       0.032423556 0.025423437 0.08323436 -0.06944739
0000e0 ca 35 52 3d 21 d5 a7 3d 73 aa 9c bd e0 e1 23 3d
       0.05132083 0.08194948 -0.07649698 0.040010333
0000f0 b6 97 bb bc 20 d5 0c 3c 6a 5f 18 3d 8b f0 16 bd
       -0.02289949 0.008595735 0.03720037 -0.036850493
000100 ca 02 76 3d 50 0a 78 bd 01 5b 8c 3d 78 76 3d bd
       0.060061254 -0.06055671 0.06853295 -0.04625556
000110 4d 13 88 3d 80 69 19 bb 64 32 bc 3c 20 c3 e3 3c
       0.06644306 -0.002340883 0.022973247 0.027803004
000120 a6 94 50 bd 00 99 4e 3c 2b 4c 8f 3d bc f3 8d bd
       -0.050923012 0.01260972 0.0699695 -0.06931254
000130 dc d4 8c 3c 5f bc 99 3d e3 74 8b 3d 38 df 57 3c
       0.017191343 0.07506632 0.06809404 0.013175778
000140 4c 14 a9 3c 43 46 84 bd 78 e5 63 bd de 8d 4d 3d
       0.020639561 -0.06458714 -0.05563876 0.050184123
000150 f0 ac 79 bd 30 66 ac 3b b2 97 2c 3d dc 7b 8a bd
       -0.06095594 0.005261205 0.042136855 -0.067619056
000160 90 36 8b bb f8 a5 50 bc c2 20 79 3d 00 e4 21 3a
       -0.0042484477 -0.0127348825 0.060822256 0.0006175637
000170 c0 84 9d bd 80 b6 be 3b d0 8e 85 bb 00 8b 2e 3c
       -0.07691336 0.0058200955 -0.0040758625 0.010653257
000180 b6 b5 cf bc 20 4f 6d bc e0 8f 0e bc aa 3b 5f 3d
       -0.025355201 -0.014484197 -0.008701295 0.05450026
000190 d8 d2 6c bc 98 a6 62 bc 37 12 92 bd ec d7 88 bd
       -0.014454566 -0.013833664 -0.071323805 -0.06681809
0001a0 00 9f 4f bb 1e b3 66 3d c6 fa 37 3d 0c dc d4 bc
       -0.0031680465 0.056323163 0.04491689 -0.025983833
0001b0 f8 37 69 bd 75 fb 96 3d 7a b7 a9 bd f9 39 a4 3d
       -0.05693814 0.0737218 -0.082869485 0.0801887
0001c0 c4 96 d8 3c 0e 78 00 bd 7e ae 30 bd d3 02 77 bd
       0.026439078 -0.031364493 -0.04313516 -0.060305428
0001d0 30 20 ec 3c f0 66 b1 3b 30 90 99 3b 77 94 89 bd
       0.028823942 0.0054138824 0.004686378 -0.067177705
0001e0 e0 7f ff 3c b2 5f 36 3d e8 c1 7d 3c 09 60 8d 3d
       0.031188905 0.044524856 0.015488125 0.06903083
0001f0 00 df fc 3b 9b 9b 26 bd 36 79 3e bd ba 98 3e 3d
       0.0077170134 -0.04067574 -0.046502315 0.04653237
000200 d6 df 3f bd 54 44 ca 3c 9c c5 f2 3c aa 96 61 3d
       -0.046844326 0.024690785 0.029635243 0.055075325
000210 c0 88 82 3b f4 e4 9f bd 54 27 84 bd c6 09 c7 bc
       0.003983587 -0.07807341 -0.06452814 -0.024296653
000220 10 a8 9d bd e6 21 62 3d 50 9f f7 3b e0 1e a2 bc
       -0.07698071 0.05520811 0.0075568333 -0.019790113
000230 3b d1 76 bd 2a 93 38 3d 66 56 03 bd 70 41 e8 3b
       -0.06025813 0.04506222 -0.032064818 0.007087879
000240 56 e9 d2 bc f0 9d 9e 3d 54 e1 87 bd e2 96 c9 bc
       -0.025746029 0.07744968 -0.06634775 -0.02460808
000250 6f 3a 28 3d 76 ba 2e bd 43 61 04 bd 00 cb 1d 3d
       0.04107135 -0.04265829 -0.03231932 0.038523674
000260 76 4c 80 bd a7 11 62 3d 0f 3c 8d 3c b4 7d 2d bd
       -0.06264584 0.055192616 0.017240552 -0.042356208
000270 88 d2 0c 3d 64 12 27 3d ad e9 6d bd 06 f5 83 3b
       0.034380466 0.040789023 -0.05808418 0.004027012
000280 91 d1 bc 3c ce 42 15 bd 27 7a 36 3d f0 92 d8 3c
       0.023049148 -0.036440663 0.044550087 0.026437253
000290 52 2d c3 3d d5 72 a2 3d 5c 8e 55 bd bd d4 75 bd
       0.095301285 0.07932059 -0.052137718 -0.060017336
0002a0 f2 95 fa bb 94 c1 10 bd d0 99 1b 3c cb a4 6a 3d
       -0.0076472694 -0.03534086 0.009497121 0.057286065
0002b0 58 5c ac bd b6 58 82 bd 6f 5b e8 bc 0f a5 77 bd
       -0.08416051 -0.063645765 -0.028363911 -0.060460147
0002c0 e7 3d 66 3d de 98 55 bb 2a 65 2f 3d 61 8b 99 3d
       0.05621138 -0.0032592337 0.042821087 0.074972875
0002d0 be 40 8d bd 15 79 3d 3d f6 a0 f3 3c 3b ca 65 3c
       -0.06897114 0.04625805 0.029739838 0.014025266
0002e0 57 e9 1a 3d 0f a2 5e 3d 5a f7 8f 3d c8 1f 9c 3c
       0.037820186 0.05435377 0.070296004 0.019058123
0002f0 35 da 58 3d 02 67 05 3c 8f 70 42 bd e8 9e 73 3d
       0.052942473 0.008142235 -0.047470625 0.059477717
000300 0d 95 3a 3c 7d f8 fd 3b 03 cb 91 3c 75 df c0 3c
       0.011388076 0.0077505694 0.017796999 0.023544053
000310 08 71 62 bd 57 b4 b0 3d 50 bf 4d bb f1 99 20 3c
       -0.055283576 0.08628147 -0.0031394549 0.0098023275
000320 5e be af 3d ca 75 85 bd 72 bb 82 bd f6 09 86 bd
       0.085812315 -0.06516607 -0.063834086 -0.06544869
000330 64 13 8b bc 5c ab 2d 3d e6 1e 15 3d 26 79 93 3d
       -0.01697702 0.04239975 0.03640642 0.072008416
000340 9c 61 98 bd 9c 6b 7d 3d 95 b1 1d bd 2a bd 03 3d
       -0.074404925 0.061870202 -0.038499434 0.032162823
000350 5d c9 24 3c e9 2a a0 3c fe 21 a3 bc 2a 89 aa 3d
       0.010057774 0.019551711 -0.01991367 0.08326943
000360 e7 20 56 bd e7 c0 22 39 81 01 18 3d 5b e6 a8 bc
       -0.052277472 0.00015521386 0.03711081 -0.020617655
000370 72 24 96 3d 6a bb 8d 3d 69 4e 25 3c e8 45 a2 bb
       0.0733117 0.06920512 0.010089495 -0.004952181
000380 b4 eb 71 3d d0 b5 0a 3c 60 8e 6d 3d 0b 36 ba bd
       0.059062675 0.008466199 0.057997108 -0.09092339
000390 c5 63 51 3c 1f f5 0b 3d d0 26 73 bd 0e 34 a8 bd
       0.012780135 0.034169313 -0.059363186 -0.08213054
0003a0 0a 85 4c bd d7 3d 3d bd 69 3f 53 bc da d0 26 3d
       -0.049931563 -0.046201553 -0.012893536 0.04072652
0003b0 be 9c 91 bd df 5f 32 bd 93 1c 80 bd 0e 30 4e bd
       -0.07109974 -0.04354846 -0.0625545 -0.050338797
0003c0 ef 9b b5 3c 8a c2 e7 bc 30 05 39 3d d2 d9 9c bc
       0.022169081 -0.028291006 0.045170963 -0.019146834
0003d0 a8 72 99 3d 4e f6 3a 3c 6c f7 e0 3c 92 aa e2 3c
       0.07492572 0.011411263 0.02746173 0.027669225
0003e0 9e 02 e4 3c 45 1f fe 3c b7 9b 79 bb 65 86 25 bd
       0.02783328 0.03102077 -0.0038087198 -0.04041137
0003f0 b4 1c 68 3b 4a 46 2c 3d e5 95 50 3d 5e 0b e0 3c
       0.00354175 0.04205922 0.0509242 0.02734917

bias f4 [32]
000000 c4 42 93 bd a3 3e 9f bd 69 32 e9 3a 82 f6 4b bd
       -0.07190469 -0.07775619 0.0017791513 -0.049795635
000010 28 57 20 3c 43 d9 3a 3d 5f 8e 03 3c 76 10 33 3d
       0.009786405 0.045617353 0.008029549 0.04371687
000020 c3 5f 88 bc 86 d8 af bd 69 d2 a4 bc c9 55 76 3d
       -0.016647225 -0.085862204 -0.020119863 0.060140405
000030 a9 14 9e bd 54 2a 3c bd 35 94 74 bd b7 51 9c 3d
       -0.07718784 -0.045938805 -0.059711654 0.07632773
000040 0a 23 6c 3d df 76 1b 3d 08 41 93 3d 6a de 7c 3d
       0.057650603 0.03795516 0.07190138 0.061735548
000050 54 e5 da bd 71 8c d3 3c 48 02 b5 bc 5f 19 8c 3d
       -0.10688272 0.025823804 -0.022095814 0.06840777
000060 e2 91 a6 bd 64 ac ba bd 17 88 95 3d 47 1c 91 bc
       -0.08133294 -0.09114912 0.07301348 -0.017713679
000070 fc a0 93 3d 54 fa 0a 3d fb ca 29 3d 45 d4 64 3d
       0.0720844 0.033930138 0.041453343 0.0558665

weight f4 [32, 32, 3, 3]
000000 00 c0 bb 37 2a e5 32 bd 8a 52 b8 3c b8 f9 a0 bb
       2.2381544e-05 -0.04367558 0.022500295 -0.0049125813
000010 2c 39 93 bc 4e 9f 27 bd c8 a6 e3 3b 54 18 06 bd
       -0.017971598 -0.04092341 0.006947372 -0.032738045
000020 ee db a4 3c 53 55 34 bd 8c f5 4c bd cf c1 4f 3d
       0.020124402 -0.044026684 -0.05003886 0.05072194
000030 08 25 9e ba fd cf b3 3c c8 9a 65 bd d4 0b c5 3c
       -0.001206548 0.021949762 -0.056055814 0.024053492
000040 de 41 43 3d e8 6b d3 3c 08 c3 e1 3c 22 e7 bf 3b
       0.047670238 0.02580829 0.027558818 0.0058564106
000050 38 6e e8 bc 36 66 f4 bc e3 9a e4 bc 9c ce 10 3d
       -0.028372869 -0.029833894 -0.027905887 0.035353288
000060 9f 03 2b bd 29 e6 db bc 92 df 1a bd f1 0c f4 bc
       -0.0417515 -0.026843147 -0.03781087 -0.029791327
000070 a3 f1 0b bd d6 e1 c9 bc ba 54 3f bd 6a bd 50 3d
       -0.03416599 -0.02464382 -0.04671166 0.05096189
000080 30 91 04 bc 13 d5 28 3d 95 e8 0b bd 53 1d 3b 3c
       -0.008091256 0.04121883 -0.034157354 0.011420566
000090 1c 40 39 bd 5c 26 76 bc 9c 80 31 bd bc d1 36 3d
       -0.045227155 -0.015023794 -0.043335542 0.044633612
0000a0 c3 d1 c5 3c b4 78 7c 3d a2 9f 2c bd 5e 5d f6 bc
       0.024147874 0.06163855 -0.042144425 -0.030073818
0000b0 91 d2 d7 3c 28 28 98 3b 5e dc 89 3d 95 93 88 3d
       0.026345523 0.004643459 0.06731485 0.06668774
0000c0 05 9f ce 3c 5c 33 43 3d 63 f4 9d 3d 75 39 37 3c
       0.02522231 0.047656402 0.07712629 0.011183132
0000d0 c8 c5 d6 bc 17 e5 1b 3d 89 11 00 3d f9 5b da 3b
       -0.026217356 0.038060274 0.031266723 0.006663796
0000e0 95 32 10 bd 12 24 0c bc eb 2e c4 bc da b0 11 bd
       -0.03520449 -0.008553522 -0.023948153 -0.03556905
0000f0 1f d8 04 3d 72 91 74 bd 5c 38 1b bc eb f3 8b 3c
       0.03243267 -0.05970902 -0.009473886 0.017084083
000100 ae a6 20 3d 7b 3e 8e 3d 2c 1b 85 3d 15 a9 49 3d
       0.039221458 0.06945511 0.06499323 0.049233515
000110 80 bf fe bc c0 d7 9f bc 5b 1d e9 bc 16 4a 88 3d
       -0.031097174 -0.019512057 -0.02845638 0.06654756
000120 a5 bb 0b bd cb d9 36 bd f4 b3 68 ba 97 42 34 3d
       -0.0341145 -0.044641297 -0.0008876913 0.044008818
000130 1a 1f f6 bc bc 8d 97 bc 4b 5a 5e bd bd f0 3d 3b
       -0.030044127 -0.018500201 -0.05428533 0.0028982603
000140 10 38 94 3b 0f bc d5 bb 82 c7 ba 3d 91 f9 9b 3c
       0.0045232847 -0.0065226625 0.09120084 0.019039901
000150 42 30 8f 3d 83 bf b2 3c 13 de 0b bb d1 bc 0c 3c
       0.06991626 0.021819836 -0.0021342083 0.008589939
000160 83 a1 9f 3b ae 29 a1 3d 17 59 56 bd 5b 2c 4f bc
       0.0048715486 0.07869278 -0.052331056 -0.0126448525
000170 3a 96 f1 3c d5 b0 5a 3d c1 e6 55 3c dc 55 45 3d
       0.029490579 0.053391296 0.013055504 0.048177585
000180 c5 b8 b5 3b 80 1d 62 bc 3a 24 d4 3b 20 68 98 bc
       0.005545708 -0.013800979 0.006474045 -0.018604338
000190 7c d1 4e 3d 3f ea 7c 3d 19 c9 32 3d 88 28 47 bd
       0.05049275 0.061746832 0.043648813 -0.048622638
0001a0 98 62 75 bc 29 48 6d 3c 0a 67 be bc ba dd 07 3d
       -0.01497712 0.014482536 -0.023242492 0.03317044
0001b0 db 78 6b bd 90 8e ad 3c 2b 65 58 bd 64 1f 79 bd
       -0.057488304 0.021186143 -0.052830856 -0.060820952
0001c0 7d 73 99 3a 35 e6 6f bd 61 ae 61 bc c8 43 ed bc
       0.0011707392 -0.058569152 -0.013774485 -0.028962985
0001d0 a1 b4 2e 3d d0 5d c9 3c 64 16 54 bc 97 9e 11 3a
       0.04265273 0.024580866 -0.0129447915 0.0005554943
0001e0 37 b8 f7 3b 4f bb 4c 3d 03 a4 be bc e5 41 e6 3c
       0.007559802 0.04998332 -0.023271566 0.028107593
0001f0 1b 01 1f 3d b3 bd 07 bd 01 3d 12 bd 35 c6 f2 bc
       0.038819414 -0.033139896 -0.03570271 -0.029635528
000200 b1 1b 08 bd 96 31 12 3d 98 68 1c 3d ed f8 b8 3c
       -0.033229534 0.03569182 0.038185686 0.022579635
000210 ba 37 20 bd 40 cb 99 3c 13 56 2a bd e9 fa b7 bc
       -0.039115645 0.018773675 -0.041585993 -0.02245851
000220 8b 0e bb 3c 53 32 d7 bc 61 e3 5b 3d 87 d2 48 bc
       0.022834083 -0.026269114 0.053683642 -0.012257225
000230 d6 df 95 3b 4d 69 34 3d 17 bc 65 3c 1a 9c 21 bd
       0.0045738025 0.044045735 0.014021895 -0.03945551
000240 de 5b 74 3d 55 24 10 3d 26 01 49 3c a4 42 db bc
       0.059657924 0.0351909 0.01226834 -0.026765175
000250 e7 48 15 3d cf 7c a9 3c 2e f6 32 bd 53 27 b2 bc
       0.03644648 0.020689396 -0.043691806 -0.021747267
000260 fa 42 1d 3d c9 19 ed ba 44 10 a1 bb 1d 5c 98 3d
       0.038393952 -0.001808935 -0.004915269 0.07439444
000270 d6 ad 48 3d 2a 04 a7 3c 90 b3 fc 3b 9f ce f3 bc
       0.048993908 0.020387728 0.007711835 -0.02976161
000280 ab 6a a8 3d d0 9e 8c 3d f3 45 0f bd 78 a9 45 3d
       0.0822347 0.068662286 -0.03497882 0.04825732
000290 55 b0 f0 3c 14 61 30 bd 7f 46 1e 3c 9c e8 22 bd
       0.029380957 -0.04306133 0.009660362 -0.039772615
0002a0 3b e0 73 bc 4f 09 e8 bc 1d 99 25 3d 0f d3 20 bd
       -0.014885004 -0.028324751 0.040429223 -0.03926378
0002b0 f0 8e 95 3c ce 52 35 3d 19 43 3f 3d 7d 78 e5 3c
       0.018256634 0.04426842 0.04669485 0.028011555
0002c0 1f bc 64 3d d1 9a 14 bd 3a 05 db bc 31 69 30 3d
       0.05584347 -0.036280457 -0.02673589 0.04306907
0002d0 7c 25 50 3d 0a 94 2a 3d bd 77 bd 3c dc 24 d2 3d
       0.050816998 0.041645087 0.023128385 0.102609366
0002e0 d6 d4 d6 3d 52 86 e5 3d e2 79 41 bb 37 3a b3 3d
       0.10489814 0.1120726 -0.002952211 0.08751338
0002f0 1d 09 5d bb d1 43 03 3d f9 a7 76 bd 69 f0 22 3d
       -0.0033727356 0.032047097 -0.060218785 0.039780054
000300 19 a0 96 bc 56 14 2f bd 4c 72 d9 3c 43 45 2d bd
       -0.018386887 -0.042744003 0.026543759 -0.04230238
000310 bc 8e 59 bd ac 18 1a bd 24 8d 9d 3a 23 1a 7c 3c
       -0.053114638 -0.037621185 0.0012020213 0.015387091
000320 bf ec b2 bc ee ab de bc a3 58 82 3d e8 97 11 3d
       -0.021841405 -0.027181592 0.06364562 0.03554526
000330 b3 02 a7 bc 5b 53 a3 bc 00 2b f8 3c 9a 37 58 3d
       -0.02038703 -0.019937208 0.030293941 0.0527874
000340 a7 90 08 bd bc 49 13 bd 4c df b2 3c a4 dc 39 3b
       -0.033341076 -0.03595899 0.021834992 0.0028360272
000350 bb b1 43 bc d9 24 37 3d e6 6d 0e bc e9 46 3e 3d
       -0.01194423 0.044712875 -0.008693194 0.046454344
000360 c3 db 89 3c 64 1f b8 bc 5e b1 94 bc 0e 31 63 bd
       0.016828423 -0.022475906 -0.018150982 -0.055466704
000370 73 e6 6b bd 5a 7c 8e bc 09 3e 75 bc b3 20 86 3b
       -0.05759282 -0.01739328 -0.014968404 0.0040932535
000380 d8 7c dd 3b 4f ed dd bc 39 9b 5f bc b8 78 00 bc
       0.0067592673 -0.027090697 -0.013647848 -0.007841282
000390 1e 14 67 3d aa 54 e2 bc be 2f bf bc 31 a6 be 3c
       0.05641567 -0.027628262 -0.023338195 0.023272606
0003a0 05 2b 72 3d f9 78 47 bd 07 00 11 3c 47 7e 24 3d
       0.059123058 -0.048699353 0.008850104 0.04015949
0003b0 d7 3d 67 3d 7b 3f 84 3d 3d 08 a7 bc 5a 37 82 3d
       0.05645546 0.064574204 -0.02038967 0.06358214
0003c0 e0 b8 8a 3d 65 f8 e0 bc 85 54 26 3d 6b ac 3e bd
       0.06773543 -0.027462194 0.040607948 -0.04655115
0003d0 62 b6 48 bd 55 71 7c 3c d3 3b b6 3c 31 f6 ed 3c
       -0.04900206 0.01540788 0.022245323 0.029048057
0003e0 5e 79 c4 bb 75 90 4a bc eb 87 42 3d 2a 90 80 bd
       -0.0059959134 -0.012363543 0.047492903 -0.06277497
0003f0 81 59 ab 3d 75 d9 65 3a 39 65 bf 3c 88 12 ca bc
       0.08366681 0.00087680604 0.023363696 -0.02466704

bias f4 [32]
000000 0d 76 26 bc d8 f9 9b 3c 0a 4d 0f 3d ae 82 3d 3d
       -0.010159981 0.019040033 0.03498558 0.046267204
000010 0a 28 d7 3c 64 35 04 3b 08 0f 1d 3c 7e 8b 21 3d
       0.02626421 0.0020173425 0.009586103 0.03943967
000020 1b 93 dd bc 96 fb 10 3d 9c 13 19 bc da 18 7a bc
       -0.027047684 0.03539618 -0.009343054 -0.015264714
000030 52 63 86 ba 20 0d a9 3c 78 e8 60 3d 56 ee 8b bc
       -0.0010252988 0.020636141 0.0549092 -0.01708142
000040 a9 27 a9 bb e5 a7 dd 3b e1 37 03 3c 18 48 24 3d
       -0.0051621986 0.0067643994 0.008008928 0.040107816
000050 37 fc 8c 3c 86 10 cf bc 91 27 01 3c e3 bd c9 3c
       0.01721011 -0.025276434 0.0078829685 0.024626678
000060 85 d1 09 3d 78 c0 11 3c 51 e5 44 3d 60 b8 8d bd
       0.03364708 0.008895986 0.048070256 -0.06919932
000070 9e 53 59 3c a2 c5 65 bd 73 d9 be 3b 46 0c af 3c
       0.013264565 -0.05609668 0.005824262 0.021368157

weight f4 [64, 32, 3, 3]
000000 cb 3d 96 3a c1 35 82 3d f9 40 98 bb d3 11 96 3d
       0.0011462508 0.06357909 -0.004646417 0.073276184
000010 ff 55 13 3d 89 95 ec 3c 43 6f 85 3d b5 62 cd 3a
       0.035970684 0.028879898 0.06515362 0.0015669676
000020 c4 38 09 3d 72 87 9d 3c 9b fd 47 3c 3b 3e 4d bd
       0.0335014 0.019229624 0.01220646 -0.050108176
000030 8e 72 20 3d 00 84 e9 3c 23 2b 5b bc b0 d8 e7 3b
       0.039171748 0.028505325 -0.013376984 0.0070753917
000040 74 d7 ed bc 3f 68 96 3b 18 9a f3 bc e1 23 9f bc
       -0.0290334 0.004590064 -0.029736564 -0.019426288
000050 ff 59 8b bc 0d 19 1e 3d d4 38 c2 3b b9 e2 34 bd
       -0.017010687 0.03859811 0.0059271846 -0.044161532
000060 60 04 e3 bc 96 30 49 3d 9a 4f db bc e8 42 33 bd
       -0.027712047 0.0491186 -0.026771355 -0.04376498
000070 07 9a 2e 3d 55 8a 0e 3d 72 3f db bc f1 19 05 3c
       0.04262736 0.034799892 -0.026763652 0.008123861
000080 8e 4b c8 bc 15 4b 8f bd 4c 22 a4 3c 52 36 58 bd
       -0.02445009 -0.06996743 0.020035885 -0.05278618
000090 a0 02 f8 bc 66 27 11 3d fc 06 41 bc 2b 60 bb bc
       -0.03027469 0.035437964 -0.01178145 -0.022873005
0000a0 0c 3a 0f bd 06 0b 31 bd d4 ad b2 bc 23 06 02 bd
       -0.034967467 -0.043223403 -0.021811403 -0.031744134
0000b0 fa dd 12 bb c1 68 01 bd 44 84 4d bd 84 89 eb bc
       -0.002241014 -0.03159404 -0.050174966 -0.028752096
0000c0 4c 93 c4 3c 9c 12 32 3d c5 8a 0a 3d 91 c4 08 bd
       0.023996018 0.04347478 0.033823747 -0.033390585
0000d0 b1 67 d4 3c 87 85 e2 b9 55 fd 3a 3a d7 aa 78 3d
       0.02592835 -0.00043205565 0.00071330863 0.0607098
0000e0 a9 ea f2 3b d3 49 d9 bc 9f 0b 2a bd 49 18 0f 3d
       0.0074132276 -0.02652446 -0.04151499 0.03493527
0000f0 1c 82 bb 3b 4f 29 23 bc 1a 27 16 3d dd 84 fd 3c
       0.0057222974 -0.009958579 0.036658384 0.030947143
000100 4b 21 3a bd 79 56 76 3c 0b 84 05 bd 21 c9 64 bb
       -0.045441907 0.015035265 -0.03259663 -0.0034909921
000110 73 b7 bc 3c 03 cf 8a 3c e8 e8 34 ba c4 2a 3e bc
       0.023036694 0.016944414 -0.0006901161 -0.011606876
000120 ea 3a 92 3d 3b 64 40 3c 15 9f 88 3d f0 1b 1e bd
       0.07140143 0.011742647 0.066709675 -0.038600862
000130 65 20 79 3d 0f b6 fc 3a df c8 c1 bb 59 3f 42 3d
       0.06082191 0.0019280332 -0.0059138383 0.047423694
000140 6a 18 1e bd 76 d7 e8 bc e4 e6 93 3c a6 70 fc 3b
       -0.0385975 -0.028423052 0.018054433 0.0077038584
000150 2f 80 8e 3c 6b fb cf bc 5e 34 0e bd 88 fc f5 bb
       0.017395107 -0.02538844 -0.03471791 -0.0075069107
000160 3b 7e 04 3d eb c8 7e 3d 5d 3a 83 3d 88 d5 61 3d
       0.032346945 0.06220333 0.06407616 0.05513528
000170 d7 4d d6 bc c1 30 f8 bc 68 9b 2d 3d 97 9b 92 3c
       -0.026160164 -0.030296685 0.042384535 0.017896457
000180 59 d5 73 bc d5 33 ed 3b 9b e1 5a bb 7a 1e 17 bd
       -0.014882409 0.007238845 -0.0033398631 -0.0368943
000190 8a f2 b6 bc 83 31 83 3d 45 d4 c2 3c e7 57 ce bc
       -0.022332449 0.06405928 0.023782859 -0.0251884
0001a0 43 46 87 bc e6 6a 73 3d 37 60 04 3d f9 52 0d 3d
       -0.016512996 0.05942812 0.03231832 0.034502957
0001b0 73 6b 37 bd 4d 6e 59 3c d4 2e 1b bd 3d 0b 00 3d
       -0.044780206 0.013270927 -0.037886456 0.031260718
0001c0 5a 98 df 3c 16 e0 0d bc 89 2a 39 3d db ae 2c 3d
       0.027294327 -0.008659383 0.04520658 0.042158943
0001d0 ab 19 97 bc 38 4f 3a bb c9 c6 77 3c 03 fc d7 bb
       -0.018444857 -0.0028428566 0.015123078 -0.0065913214
0001e0 73 9b 18 3d df 04 61 3d a7 fd 55 3d 0b c0 3d 3c
       0.037257623 0.054936286 0.052243855 0.011581431
0001f0 e7 5f 42 bb ab 53 7f 3d 44 93 05 bd b4 6e 14 3d
       -0.0029659213 0.06233565 -0.032611147 0.036238387
000200 2b ab e2 3c fe ba f0 3a 57 1b 06 bc 68 99 f3 bc
       0.02766951 0.0018366275 -0.008185229 -0.029736236
000210 b1 1d 24 bd a7 7f 37 bd 00 af 84 bd d7 f6 6b 3c
       -0.04006738 -0.044799473 -0.06478691 0.014402113
000220 1d bd 1e bd 29 df e8 3c 38 ba 13 bd de 34 81 bd
       -0.03875457 0.028426724 -0.036066264 -0.06308912
000230 c8 8a e1 3b a3 c5 ad bc db e3 33 3d 84 47 cc 3c
       0.006882999 -0.021212405 0.04391847 0.024936445
000240 cc 35 bf 3c 33 10 f0 bc b7 6f e0 3c 76 09 ee 3b
       0.023341082 -0.0293046 0.02739702 0.0072643114
000250 1f 31 c8 3c 07 7e 3c 3c 43 7c f3 3c 41 53 f1 3c
       0.024437485 0.011504657 0.029722339 0.029458644
000260 53 cc 84 3d 06 54 a5 3d e7 9d 28 3d c2 c7 b2 3d
       0.06484284 0.08072667 0.041166212 0.08729507
000270 e4 43 63 3d f5 b2 97 3d b8 25 97 3d 8a 65 a5 3d
       0.055484667 0.0740718 0.07380241 0.08076008
000280 59 16 1a 3d 6a 72 a7 3d d9 ba 98 3c 3f 81 61 bd
       0.03761897 0.081761196 0.018643783 -0.0550549
000290 72 3b 67 bd 2e 3b 62 bd d0 62 14 3d 37 49 81 bd
       -0.056453176 -0.05523222 0.036227047 -0.06312793
0002a0 c6 30 01 bd b2 5a 41 bd 8f c9 24 3d 58 a2 45 3d
       -0.031540655 -0.047205634 0.040231284 0.048250526
0002b0 9e 2f d5 bc 41 f5 c2 bc dc 35 1b 3d 80 8e 08 3b
       -0.026023682 -0.023798587 0.03789316 0.002083689
0002c0 53 dd 2b bd 44 25 eb bb 0f d2 7f 3c d7 e1 7b 3d
       -0.041959118 -0.0071760733 0.015614047 0.061494675
0002d0 9e 20 41 3d df 4d f8 3c 40 c7 73 3c a0 ef a7 3c
       0.047150247 0.03031057 0.014879048 0.020500004
0002e0 83 c1 c0 bc 74 f2 60 3d 72 d8 0e 3d fa 59 c0 3c
       -0.023529774 0.05491872 0.034874387 0.023480404
0002f0 d7 d4 d0 3c fa 8a 42 3d 16 2d 4b 3d 16 de c5 bc
       0.025492115 0.04749582 0.049603544 -0.02415375
000300 85 a4 4f bd 5f a1 41 3c b8 52 a1 bc c7 0a ec bc
       -0.050694007 0.011818259 -0.019692764 -0.028813733
000310 40 2f f1 bc 11 dd cb 3c 41 24 a7 bb 72 fd bb 3b
       -0.029441476 0.024885686 -0.0051007573 0.005737
000320 12 b3 ed bc 72 bd 7b bb 86 93 79 3d 5c 7f a9 3d
       -0.029016051 -0.0038412479 0.060931705 0.08276245
000330 d3 c7 d7 3c 90 0a 8f 3d 2a 80 b8 3c f3 7e d2 bc
       0.0263404 0.069844365 0.02252205 -0.0256953
000340 37 e9 65 3d a3 69 c2 bc 34 db 1f 3d e2 0c 92 bc
       0.056130614 -0.023732012 0.039027408 -0.017828409
000350 e8 e3 34 ba 73 08 20 3b af 18 49 bd 6a 33 0b bd
       -0.0006900416 0.0024419099 -0.049095806 -0.03398458
000360 40 97 37 bc 89 39 fe bc 7f f8 d3 3c 8e 67 3d bd
       -0.011205494 -0.031033294 0.025875328 -0.046241336
000370 c6 d8 83 bc 16 32 bf 3c 86 6f 81 3d 76 af 3e 3d
       -0.016094577 0.023339313 0.063200995 0.04655405
000380 2b a7 6a bc 9c 79 1a 3d d0 90 30 3c e5 0b 10 bd
       -0.0143220825 0.037713632 0.0107767135 -0.035167594
000390 d2 c1 25 bd 99 f6 14 bd e1 81 8d bc 8f fa ce bc
       -0.040468045 -0.036367986 -0.017273845 -0.02526596
0003a0 18 62 ce bc be b8 1a 3d 67 7f 7f bd 99 b6 30 3c
       -0.02519326 0.03777384 -0.06237736 0.010785722
0003b0 fc 48 a1 bd 4b 3e 00 bd 17 22 42 3d 06 57 91 bd
       -0.07875249 -0.031309407 0.04739579 -0.070966765
0003c0 d7 d0 30 bc d8 7a 0e bb e6 ac 9a bd d1 70 83 3d
       -0.010791979 -0.00217407 -0.07552509 0.064180024
0003d0 6a 85 0f bd 58 84 71 3d f9 83 39 bc 93 9d 69 3d
       -0.035039343 0.058964103 -0.011322969 0.05703504
0003e0 74 d5 9f 3d b4 a6 1b 3d 11 6b b3 bc 3c 8f 2d 3d
       0.07804385 0.038000777 -0.02190164 0.042372927
0003f0 fc 0c 0c 3d 76 bd 00 bd be 57 65 3d 37 84 34 3d
       0.03419207 -0.031430684 0.05599188 0.044071402

bias f4 [64]
000000 dd 76 be 3c 2c 19 4e bc a2 ea b4 bc d7 fb e1 bb
       0.023250038 -0.012579244 -0.022084538 -0.0068964767
000010 3b 98 1f bd 6a 93 64 bd 65 53 1f 3d 21 8d f9 3c
       -0.038963538 -0.055804648 0.03889789 0.030462803
000020 ce e3 10 bd f9 6e 64 bc c7 88 41 3c 81 2e 28 3d
       -0.0353735 -0.013942474 0.011812395 0.041059975
000030 86 0e 31 bb 7a dd e1 ba d9 49 20 3d f1 d9 fb bc
       -0.0027016713 -0.0017232143 0.039132927 -0.030743571
000040 32 5b 41 bd b6 d4 15 3d 06 2e 49 bd 93 f0 d2 3c
       -0.04720611 0.03657981 -0.049116157 0.02574948
000050 2b ea 93 bc 2b 5b 2a bd 81 2c 1e bc 62 a7 04 bd
       -0.018055996 -0.04159085 -0.009654165 -0.03238619
000060 57 27 48 bd c4 f2 5c 3d 75 ca 15 bd 5d 06 c7 3c
       -0.048865642 0.053942457 -0.03657003 0.024295026
000070 3e d0 3f bd 56 42 a1 3a 2f 74 0e bc 8f e5 5a bd
       -0.046829455 0.0012303095 -0.0086946925 -0.05344158
000080 6c f5 34 bc 81 7e 3c bd 0c ea 07 3d 56 fb 05 b9
       -0.011044841 -0.04601908 0.03318219 -0.00012777498
000090 20 34 9b 3c 43 1a 43 bd 58 dc 84 bc a0 f5 92 3c
       0.018945754 -0.047632467 -0.01621835 0.017939389
0000a0 91 1a c2 3b f6 d6 a8 bc aa 3d 34 bc 96 18 c9 ba
       0.005923577 -0.020610314 -0.01100103 -0.001534241
0000b0 ba 5e 65 bd 74 ef a4 3b 54 06 3b 3c 3a 5a 2a bd
       -0.05599854 0.005033428 0.011415083 -0.041589953
0000c0 26 e1 31 bd 64 86 9f bc 74 c3 8f ba 0b 06 08 3d
       -0.04342761 -0.019473262 -0.0010968284 0.033208888
0000d0 8d 08 f8 bc 60 17 e9 3c 6d 59 7e bc b4 32 10 bd
       -0.030277515 0.028453529 -0.01552425 -0.035204604
0000e0 34 ee 10 3c 6a db 29 bd 91 d4 ae 3b b1 cd 5a 3b
       0.008845855 -0.041469015 0.0053353985 0.0033386762
0000f0 ce a3 fd 3b ee 21 b8 bc 02 b1 8a bd 1a b0 ce bc
       0.0077404743 -0.022477116 -0.06772043 -0.025230456

weight f4 [64, 64, 3, 3]
000000 2b 4a 81 bc 05 9e d3 3a 57 fd fe 3c 8f 86 d1 bc
       -0.015782436 0.0016145116 0.031126661 -0.025576858
000010 e9 d5 19 3c c6 1c f4 bc 57 fe be 3c 44 7b de bc
       0.009389379 -0.029798876 0.023314638 -0.027158387
000020 c1 37 41 3d c1 39 b7 bc 1a ed 23 bd 9b 4c 62 3b
       0.04717231 -0.022366406 -0.04002104 0.0034530524
000030 06 27 5f 3b 3c 0b 66 bc 2e 25 ce 3b 1a 58 a6 bb
       0.003405036 -0.014040764 0.0062910533 -0.0050764205
000040 04 71 7a 3c 95 ca d8 bb a1 2d 3b 3c e1 d1 fc 3c
       0.015285734 -0.0066159465 0.011424453 0.030861797
000050 53 96 27 bd 57 3e 21 3d d9 8c bb bc 5a 0c 24 bd
       -0.040914845 0.039366093 -0.02289431 -0.040050842
000060 e8 32 fe bc 20 1b af bc 36 ef 16 3d 71 20 0d 3b
       -0.031030133 -0.021375239 0.036849223 0.002153423
000070 1e ed ec bc 13 4f 5a bd e2 34 e9 bc 3e 8b 5b bd
       -0.02892166 -0.053298067 -0.0284676 -0.05359959
000080 02 14 ba bd 91 6e 63 bd 56 07 ac bd 3f 1e 93 bd
       -0.090858474 -0.055525366 -0.08399837 -0.07183503
000090 dd ed f9 3d e6 bd 5e 3d 74 34 72 3d d1 96 3c 3d
       0.12203572 0.05438032 0.059132054 0.046042267
0000a0 89 95 78 3c 82 03 73 3c d1 64 bc 3c e9 65 20 bd
       0.015172371 0.014832379 0.022997292 -0.03915969
0000b0 3c ab 89 bd 1c 13 3d bc f4 d4 aa bc 2c ef 31 3c
       -0.067221135 -0.011540201 -0.020853497 0.010860246
0000c0 e7 17 cf 3a e8 28 10 3d 7b 93 88 3c 79 8c 94 3c
       0.001579997 0.03519526 0.016671887 0.018133389
0000d0 57 9b 0a 3d 3e f2 cb bc 6c 2a 02 3c af c5 14 3d
       0.03383955 -0.024895784 0.0079446845 0.03632134
0000e0 dc 08 1a 3d 93 af d9 3c d4 f2 08 bd fc b3 54 bb
       0.037606105 0.026572978 -0.033434704 -0.0032455912
0000f0 4b 02 17 3d 52 4a 0b 3d 53 33 c1 3c 21 fc 93 3b
       0.03686742 0.034006424 0.023584044 0.00451614
000100 89 dd c7 3c 60 67 75 3c c6 5e c1 3c aa 50 a3 ba
       0.024397628 0.01497826 0.023604762 -0.0012459953
000110 e2 09 e2 bc c6 20 b5 3c 3d 87 92 3c 18 fc 5d bc
       -0.027592603 0.022110354 0.017886752 -0.013548873
000120 88 b0 d4 bb f0 f3 fb bc d6 e8 92 3c a0 ec 14 bc
       -0.0064907707 -0.030755967 0.01793329 -0.009089619
000130 ee 86 81 bc c4 49 44 3c 66 3b 64 bc 17 61 27 bd
       -0.01581141 0.011980478 -0.013930177 -0.040864076
000140 14 d1 21 bd 23 a0 22 3c 6e 22 70 3c f6 69 ae 3a
       -0.039506033 0.009925875 0.014656646 0.0013306725
000150 6f 6e 56 bd 3b 58 6a 3c 67 af 0b bc 30 20 f1 bb
       -0.05235141 0.014303262 -0.008525706 -0.0073585734
000160 97 c8 7c bb 24 ec 0f 3d 9b b6 9a bc 93 8f 47 3c
       -0.003857171 0.03513731 -0.018885901 0.012180227
000170 4c 35 08 bd 16 8f a2 3c 54 49 00 3c 49 6a 84 bc
       -0.033253953 0.01984362 0.007829983 -0.016163962
000180 19 70 48 bd 03 a2 0d bd 8b bb 0c 3d cb db c1 3b
       -0.04893503 -0.034578335 0.034358542 0.005916094
000190 49 3d f9 3c 08 0e f3 bc 39 bc 28 bd 8d 77 6b 3c
       0.03042473 -0.029669777 -0.041195128 0.014371765
0001a0 14 18 51 bc 8a 40 d9 bc 13 ad f5 bb 33 39 4f bc
       -0.012762088 -0.026520032 -0.0074974387 -0.012647915
0001b0 fa 09 ed 3d cc 49 6b 3d 35 78 91 3b b2 62 78 3d
       0.115741685 0.057443425 0.0044393786 0.060641
0001c0 d2 24 85 3d 66 9e d4 3c 8b 3d 80 3d 49 2a 48 3d
       0.065011635 0.025954437 0.062617384 0.04886845
0001d0 f2 94 bf 3b d2 d4 2d bd bd 32 8c bd 32 7f 9a bc
       0.005846613 -0.04243929 -0.06845615 -0.01885948
0001e0 23 60 5f bd a3 62 0c bd 93 50 4c bd 0a 01 05 bd
       -0.054535042 -0.034273755 -0.04988153 -0.032471694
0001f0 64 27 c4 bd 3e 89 2d bd e8 59 09 3d 58 4b 03 3b
       -0.09577826 -0.042367212 0.033533007 0.0020033922
000200 50 9c 0a 3d f4 7d 1c 3d 08 60 89 bc 8e e3 ec 3c
       0.033840477 0.038206056 -0.016769424 0.0289171
000210 59 be 34 bc 52 37 69 3c dd 21 96 3c 89 77 eb 3c
       -0.011031711 0.014234381 0.018326694 0.028743522
000220 7f 3b 4f bc e8 4d ce 3c 6a ac b4 3c 6c bd f1 bc
       -0.012648462 0.025183633 0.02205487 -0.029509269
000230 ba 52 2a bd cf 75 8a 3c d0 c9 a2 3c b4 11 cb bc
       -0.0415828 0.016901879 0.019871622 -0.024788715
000240 e4 16 9f ba 41 34 ec 3c 2a ed 81 bb ba ee 6d 3b
       -0.0012137559 0.02883351 -0.0039650397 0.0036305622
000250 da b3 dc 3c 7f db 08 bd 23 83 ca bc 33 c1 cc 3c
       0.026941229 -0.033412453 -0.024720734 0.024994468
000260 6b 52 93 bc b1 c3 fe bc e4 19 c7 bc ea fb a0 3c
       -0.017983636 -0.031099172 -0.024304338 0.019651372
000270 13 bf 07 3d dc 5e a6 3c ed de 08 3d ec ee a3 bc
       0.033141207 0.020308904 0.033415724 -0.020011388
000280 86 99 1a bd 2c 62 3e 3d a1 51 86 bd 5d 1e 34 bd
       -0.037744068 0.046480343 -0.06558538 -0.04397427
000290 c9 d8 5f bd 46 c2 56 bd ce 5e 35 bd ba e7 69 bc
       -0.0546501 -0.052431367 -0.044279866 -0.014276439
0002a0 10 64 d7 bb 52 65 70 bd be b7 9a bc 0e c6 72 bc
       -0.0065732077 -0.058690377 -0.018886443 -0.014817728
0002b0 63 c7 0a bd f6 03 f7 3b a5 30 66 3b a0 b2 b6 3b
       -0.033881556 0.007538314 0.003512421 0.005575493
0002c0 02 8b 16 3d 25 23 2e bc 9e d0 70 3c c7 35 ed bc
       0.036753662 -0.010628496 0.014698176 -0.028956307
0002d0 f2 3c 9e bb fb b1 ff bc f3 9d 9b 3b c1 13 a7 bc
       -0.0048290426 -0.031212797 0.0047490536 -0.020395162
0002e0 ab 32 81 3b 55 a3 e2 3c de ae d9 3c 69 14 06 bd
       0.0039428077 0.027665773 0.026572641 -0.03273431
0002f0 d9 70 37 3d a6 a1 13 3d 9a c9 07 bd 85 6d 0b bc
       0.044785354 0.03604283 -0.033151247 -0.008509998
000300 db af 17 3d 63 67 a6 3b 89 f5 c2 3c f7 96 fb 3c
       0.037032943 0.0050782426 0.02379872 0.030711634
000310 65 f9 fd bb 1e aa 0a bd b7 c1 29 3d 65 67 bc bb
       -0.0077506774 -0.033853643 0.041444506 -0.0057496303
000320 61 5e aa bb 46 a1 f2 bc f6 ab cd bc c1 5f 28 3d
       -0.005199239 -0.029617917 -0.025106411 0.041106943
000330 5f 1a 1f bb 7e d3 bf 3c 39 d8 bb 3c 55 83 3b 3c
       -0.0024277193 0.023416277 0.022930251 0.011444886
000340 65 c9 fb bc 03 51 05 bd be 86 2f 3c 74 92 cb 3b
       -0.03073568 -0.032547962 0.010713277 0.006212527
000350 8e fb 83 b8 bb bd e4 bc ac ae 34 3c 87 ac 4c bc
       -6.2934225e-05 -0.027922502 0.011027973 -0.012492306
000360 78 04 87 3c 4d 2c 98 bc ad c7 0f 3c ca 31 09 bd
       0.016481623 -0.018575812 0.008775634 -0.03349475
000370 87 67 85 3c 49 0e 05 bd 07 37 3a bd 4f 48 e0 3c
       0.016284717 -0.032484327 -0.045462634 0.02737823
000380 b0 18 de 3c 63 ae bd 39 ba 61 c4 3c dc 9b 98 bc
       0.027111381 0.00036178817 0.02397238 -0.018629007
000390 c6 af 00 bc ba 68 0a 3a 43 e9 18 3c 96 e6 6c 3b
       -0.007854408 0.00052798877 0.009332958 0.0036148182
0003a0 a4 a5 3a 3c a7 fd b1 3c e4 85 d6 3c c4 a1 a9 3c
       0.011392031 0.021727396 0.02618689 0.020707019
0003b0 a2 f2 e1 bc e8 ec 88 bc f3 f8 e2 3c 4b 1e 21 bb
       -0.027581517 -0.016714528 0.027706599 -0.0024584706
0003c0 e9 65 f8 3c 46 fb b1 bc 03 12 15 bd 93 fb 03 bc
       0.030322032 -0.021726262 -0.03639413 -0.008055585
0003d0 77 c5 ca 3c 0d 63 f0 3c e0 b3 a7 bc 17 ce 27 3c
       0.024752362 0.029344106 -0.020471513 0.010242007
0003e0 5a 7a 1b 3d 7b 99 ef bc 42 18 8f 3c c7 1b 21 3d
       0.03795848 -0.02924799 0.017467622 0.03933313
0003f0 5a 60 f0 3c f0 25 7f bc 07 9b 07 bd 76 a6 08 3d
       0.029342819 -0.01557301 -0.03310683 0.033361875

bias f4 [64]
000000 e3 4a bb bc e0 74 1a 3b 0e 51 ab bc 29 04 59 3c
       -0.022862857 0.0023568198 -0.020912673 0.013245621
000010 ca 65 5a bd 6e 99 8b bc 77 b0 d1 3c 61 2f 2b bc
       -0.05331973 -0.017040934 0.02559684 -0.010448308
000020 86 57 a8 bc 15 ce 55 bb 01 0e db 3c 62 b9 a9 3a
       -0.020549547 -0.0032624055 0.026740076 0.0012948925
000030 76 fa 82 3c 14 99 09 bd 8d b8 25 3d 8c ad 0d bc
       0.01598857 -0.033593252 0.040459204 -0.008647334
000040 e6 f6 03 3d 2a 52 96 3c 7b 3e ba bc a8 5b bf 39
       0.032217883 0.018349726 -0.022734871 0.00036498648
000050 90 e2 5a bd 13 20 3e 3b 85 53 3a 3c b4 cc c8 3c
       -0.053438723 0.0029010817 0.011372452 0.024511673
000060 94 73 2d 3d 49 51 dc 3c e6 53 20 3d 87 1c e6 3b
       0.042346552 0.026894229 0.03914251 0.0070224437
000070 28 ae 16 bc 18 db 31 3d 36 9c 53 3d 62 4b 1d 3d
       -0.0091967955 0.043421835 0.051662646 0.03840197
000080 7d 59 cb bc 0d 72 13 bb 47 c4 53 3d fd 99 1e bd
       -0.024822945 -0.00224984 0.051700857 -0.038721073
000090 cf be ca bc 26 de b1 bc b0 42 fa bb ae 71 19 3c
       -0.024749188 -0.021712374 -0.0076373443 0.009365482
0000a0 83 de ea 3c 7c de 20 bd d8 2b 3c 3d cc 1e 9e bb
       0.028670555 -0.039274678 0.04594025 -0.0048254486
0000b0 0d a2 a9 3c 54 79 b7 bb 3a 48 ea 3c 67 fd 70 bb
       0.020707155 -0.0055991802 0.028598893 -0.0036772133
0000c0 8c 18 b7 bb df 59 00 3d 5a c9 09 ba b6 ef a6 3c
       -0.005587643 0.031335708 -0.0005256139 0.020377975
0000d0 67 15 0e 3d 18 d3 eb bc e0 d5 d1 3c d6 65 78 bc
       0.03468838 -0.02878718 0.025614679 -0.015160998
0000e0 eb 4c 28 3d 3a 84 d7 3c e0 6a 2c bc a2 ec 40 bd
       0.04108898 0.026308168 -0.010523528 -0.04710067
0000f0 31 e0 8e 3c 0c 99 70 bb 22 14 18 3d 25 5b 00 3d
       0.017440887 -0.0036712317 0.037128575 0.031336922
